…
86, 99360, 8903, 77128, 112401, 100158, 3837, 99670, 99571, 100430, 101054, 3837, 73670, 102422, 99190, 1773, 151645, 198]
[INFO:swift] [REJECTED_LABELS] [-100 * 62]<think>

</think>

导出就是把日志打包一下，不会占多少空间，可以随时做。<|im_end|>

[INFO:swift] Dataset Token Length: 129.666667±11.078006, min=111.000000, max=152.000000, size=12
[INFO:swift] The RLHFArguments will be saved in: /workspace/qwen-qlora-lab/outputs/stage3_qwen3_17b_dpo/v0-20260616-031625/args.json
[INFO:swift] model: PeftModelForCausalLM(
  (base_model): LoraModel(
    (model): Qwen3ForCausalLM(
      (model): Qwen3Model(
        (embed_tokens): Embedding(151936, 2048)
        (layers): ModuleList(
          (0-27): 28 x Qwen3DecoderLayer(
            (self_attn): Qwen3Attention(
              (q_proj): lora.Linear(
                (base_layer): Linear(in_features=2048, out_features=2048, bias=False)
                (lora_dropout): ModuleDict(
                  (default): Identity()
                  (ref_adapter): Identity()
                )
                (lora_A): ModuleDict(
                  (default): Linear(in_features=2048, out_features=16, bias=False)
                  (ref_adapter): Linear(in_features=2048, out_features=16, bias=False)
                )
                (lora_B): ModuleDict(
                  (default): Linear(in_features=16, out_features=2048, bias=False)
                  (ref_adapter): Linear(in_features=16, out_features=2048, bias=False)
                )
                (lora_embedding_A): ParameterDict()
                (lora_embedding_B): ParameterDict()
                (lora_magnitude_vector): ModuleDict()
              )
              (k_proj): lora.Linear(
                (base_layer): Linear(in_features=2048, out_features=1024, bias=False)
                (lora_dropout): ModuleDict(
                  (default): Identity()
                  (ref_adapter): Identity()
                )
                (lora_A): ModuleDict(
                  (default): Linear(in_features=2048, out_features=16, bias=False)
                  (ref_adapter): Linear(in_features=2048, out_features=16, bias=False)
                )
                (lora_B): ModuleDict(
                  (default): Linear(in_features=16, out_features=1024, bias=False)
                  (ref_adapter): Linear(in_features=16, out_features=1024, bias=False)
                )
                (lora_embedding_A): ParameterDict()
                (lora_embedding_B): ParameterDict()
                (lora_magnitude_vector): ModuleDict()
              )
              (v_proj): lora.Linear(
                (base_layer): Linear(in_features=2048, out_features=1024, bias=False)
                (lora_dropout): ModuleDict(
                  (default): Identity()
                  (ref_adapter): Identity()
                )
                (lora_A): ModuleDict(
                  (default): Linear(in_features=2048, out_features=16, bias=False)
                  (ref_adapter): Linear(in_features=2048, out_features=16, bias=False)
                )
                (lora_B): ModuleDict(
                  (default): Linear(in_features=16, out_features=1024, bias=False)
                  (ref_adapter): Linear(in_features=16, out_features=1024, bias=False)
                )
                (lora_embedding_A): ParameterDict()
                (lora_embedding_B): ParameterDict()
                (lora_magnitude_vector): ModuleDict()
              )
              (o_proj): lora.Linear(
                (base_layer): Linear(in_features=2048, out_features=2048, bias=False)
                (lora_dropout): ModuleDict(
                  (default): Identity()
                  (ref_adapter): Identity()
                )
                (lora_A): ModuleDict(
                  (default): Linear(in_features=2048, out_features=16, bias=False)
                  (ref_adapter): Linear(in_features=2048, out_features=16, bias=False)
                )
                (lora_B): ModuleDict(
                  (default): Linear(in_features=16, out_features=2048, bias=False)
                  (ref_adapter): Linear(in_features=16, out_features=2048, bias=False)
                )
                (lora_embedding_A): ParameterDict()
                (lora_embedding_B): ParameterDict()
                (lora_magnitude_vector): ModuleDict()
              )
              (q_norm): Qwen3RMSNorm((128,), eps=1e-06)
              (k_norm): Qwen3RMSNorm((128,), eps=1e-06)
            )
            (mlp): Qwen3MLP(
              (gate_proj): lora.Linear(
                (base_layer): Linear(in_features=2048, out_features=6144, bias=False)
                (lora_dropout): ModuleDict(
                  (default): Identity()
                  (ref_adapter): Identity()
                )
                (lora_A): ModuleDict(
                  (default): Linear(in_features=2048, out_features=16, bias=False)
                  (ref_adapter): Linear(in_features=2048, out_features=16, bias=False)
                )
                (lora_B): ModuleDict(
                  (default): Linear(in_features=16, out_features=6144, bias=False)
                  (ref_adapter): Linear(in_features=16, out_features=6144, bias=False)
                )
                (lora_embedding_A): ParameterDict()
                (lora_embedding_B): ParameterDict()
                (lora_magnitude_vector): ModuleDict()
              )
              (up_proj): lora.Linear(
                (base_layer): Linear(in_features=2048, out_features=6144, bias=False)
                (lora_dropout): ModuleDict(
                  (default): Identity()
                  (ref_adapter): Identity()
                )
                (lora_A): ModuleDict(
                  (default): Linear(in_features=2048, out_features=16, bias=False)
                  (ref_adapter): Linear(in_features=2048, out_features=16, bias=False)
                )
                (lora_B): ModuleDict(
                  (default): Linear(in_features=16, out_features=6144, bias=False)
                  (ref_adapter): Linear(in_features=16, out_features=6144, bias=False)
                )
                (lora_embedding_A): ParameterDict()
                (lora_embedding_B): ParameterDict()
                (lora_magnitude_vector): ModuleDict()
              )
              (down_proj): lora.Linear(
                (base_layer): Linear(in_features=6144, out_features=2048, bias=False)
                (lora_dropout): ModuleDict(
                  (default): Identity()
                  (ref_adapter): Identity()
                )
                (lora_A): ModuleDict(
                  (default): Linear(in_features=6144, out_features=16, bias=False)
                  (ref_adapter): Linear(in_features=6144, out_features=16, bias=False)
                )
                (lora_B): ModuleDict(
                  (default): Linear(in_features=16, out_features=2048, bias=False)
                  (ref_adapter): Linear(in_features=16, out_features=2048, bias=False)
                )
                (lora_embedding_A): ParameterDict()
                (lora_embedding_B): ParameterDict()
                (lora_magnitude_vector): ModuleDict()
              )
              (act_fn): SiLUActivation()
            )
            (input_layernorm): Qwen3RMSNorm((2048,), eps=1e-06)
            (post_attention_layernorm): Qwen3RMSNorm((2048,), eps=1e-06)
          )
        )
        (norm): Qwen3RMSNorm((2048,), eps=1e-06)
        (rotary_emb): Qwen3RotaryEmbedding()
      )
      (lm_head): Linear(in_features=2048, out_features=151936, bias=False)
    )
  )
)
[INFO:swift] model_parameter_info: PeftModelForCausalLM: 1755.4401M Params (17.4326M Trainable [0.9931%]), 0.0001M Buffers.
[RANK 0] Detected kernel version 4.19.90, which is below the recommended minimum of 5.5.0; this can cause the process to hang. It is recommended to upgrade the kernel to the minimum version or higher.
[2026-06-16 03:16:35,340] [INFO] [real_accelerator.py:254:get_accelerator] Setting ds_accelerator to cuda (auto detect)
…
